models/mnist_optimized.tflite (tflite, 119956 bytes, 12 tensors)

sequential/conv2d/BiasAdd/ReadVariableOp f2 [16]
0	0x21be	0.011215
1	0xaad9	-0.0535
2	0x258c	0.02167
3	0x8f1c	-0.000434
4	0x2213	0.01186
5	0x2371	0.014534
6	0x2710	0.02759
7	0x9706	-0.001715
8	0x1e7c	0.006332
9	0xaa95	-0.05142
10	0xa842	-0.03326
11	0x2c2e	0.0653
12	0x265f	0.02489
13	0x2c6c	0.0691
14	0xa7df	-0.03075
15	0xacae	-0.0731

sequential/conv2d_1/BiasAdd/ReadVariableOp f2 [32]
0	0xb09c	-0.144
1	0xb120	-0.1602
2	0xac48	-0.0669
3	0xac60	-0.06836
4	0xb0cc	-0.1499
5	0xb1e5	-0.1842
6	0xb23d	-0.195
7	0xadc1	-0.0899
8	0xb023	-0.1293
9	0xa4fe	-0.0195
10	0xb42f	-0.2615
11	0x2de3	0.092
12	0x2ce3	0.07635
13	0xb032	-0.1311
14	0xac68	-0.06885
15	0xb2d3	-0.2133
16	0x2e37	0.0971
17	0xb100	-0.1562
18	0x2781	0.02931
19	0xb1f6	-0.1863
20	0x2cc3	0.0744
21	0x2056	0.00847
22	0x313a	0.1633
23	0xa91c	-0.03992
24	0xb1f4	-0.186
25	0xad88	-0.0864
26	0xa41d	-0.01607
27	0xaa19	-0.04764
28	0xafda	-0.1227
29	0x2d49	0.0826
30	0xb40c	-0.253
31	0xb4a0	-0.289

sequential/conv2d/Conv2D f2 [16, 3, 3, 1]
0	0xb0b9	-0.1476
1	0xb11a	-0.1594
2	0x299f	0.0439
3	0xac9a	-0.0719
4	0xad18	-0.0796
5	0xb3a3	-0.2386
6	0x332e	0.2244
7	0x3032	0.1311
8	0xa8c0	-0.0371
9	0x30a1	0.1447
10	0x32eb	0.2162
11	0xb32f	-0.2245
12	0xb2d8	-0.2139
13	0xb12a	-0.1614
14	0x312f	0.162
15	0x2562	0.02103
16	0x2d9e	0.08777
17	0x2e0f	0.09467
18	0xb2fd	-0.2184
19	0xa23a	-0.01216
20	0x317b	0.1713
21	0xb438	-0.2637
22	0x9990	-0.002716
23	0x2260	0.01245
24	0xa1e1	-0.01148
25	0xb44e	-0.269
26	0xb19b	-0.1752
27	0xae0d	-0.09454
28	0xb12e	-0.1619
29	0xa17d	-0.01072
30	0xae7e	-0.10144
31	0x1dcd	0.005665
32	0xb1e9	-0.1847
33	0xad46	-0.0824
34	0x33f1	0.2482
35	0xb0b6	-0.1472
36	0xa5e1	-0.02296
37	0xaf27	-0.11176
38	0xb351	-0.2286
39	0x3065	0.1373
40	0xab37	-0.05637
41	0x2239	0.01215
42	0xac53	-0.06757
43	0x30c5	0.149
44	0x30f1	0.1544
45	0x2d6a	0.0846
46	0x31ca	0.1809
47	0xa8b4	-0.03674
48	0xb187	-0.1727
49	0xac79	-0.0699
50	0xb316	-0.2214
51	0xafba	-0.1207
52	0xb035	-0.1315
53	0x2e1b	0.0954
54	0x2f3b	0.113
55	0xb0dd	-0.152
56	0xb2f7	-0.2177
57	0xaba4	-0.0597
58	0x2a9b	0.0516
59	0xb0f3	-0.1547
60	0x2d69	0.08453
61	0x2e13	0.0949
62	0xb0f6	-0.155
63	0xa6f7	-0.0272
64	0x2a70	0.0503
65	0xa9f9	-0.04666
66	0x2c7f	0.07025
67	0xb42a	-0.2603
68	0x201d	0.00803
69	0xac33	-0.0656
70	0xb1f9	-0.1866
71	0x31ad	0.1774
72	0x2e23	0.0959
73	0x2efc	0.10913
74	0xad52	-0.0831
75	0xaff8	-0.1245
76	0xb2ae	-0.2087
77	0xae24	-0.09595
78	0xa32a	-0.01399
79	0x27ed	0.03096
80	0x2c8f	0.0712
81	0xb16f	-0.1698
82	0x314a	0.1653
83	0x2940	0.04102
84	0x285d	0.0341
85	0x32aa	0.2083
86	0xb172	-0.1702
87	0x2dfa	0.0934
88	0xb0ed	-0.1539
89	0xa8bc	-0.037
90	0x301c	0.1284
91	0xacfe	-0.078
92	0x315e	0.1677
93	0xb0eb	-0.1537
94	0xb1a7	-0.1766
95	0x32d6	0.2136
96	0x29f8	0.04663
97	0xb2ba	-0.2102
98	0xa6f6	-0.02719
99	0x3100	0.1562
100	0x307a	0.1399
101	0x9b18	-0.003464
102	0xb0e0	-0.1523
103	0x3010	0.127
104	0xb20d	-0.1891
105	0xb42b	-0.2605
106	0x167e	0.001585
107	0x2a9f	0.05173
108	0xb08d	-0.1422
109	0xb2a0	-0.207
110	0xaffb	-0.1247
111	0xb4a4	-0.29
112	0x2e30	0.0967
113	0x3060	0.1367
114	0xb122	-0.1604
115	0x2f19	0.1109
116	0x2ef1	0.10846
117	0xa802	-0.0313
118	0xb275	-0.2018
119	0xb102	-0.1565
120	0xaa49	-0.0491
121	0x2c27	0.0649
122	0x2781	0.02931
123	0x2ef6	0.10876
124	0x2fbd	0.1209
125	0x3194	0.1743
126	0x3108	0.1572
127	0x31be	0.1794
128	0xb305	-0.2194
129	0xac9f	-0.0722
130	0x30d9	0.1515
131	0xb260	-0.1992
132	0x2be8	0.06177
133	0x2e3c	0.0974
134	0xb046	-0.1335
135	0xaab7	-0.05246
136	0x2fcb	0.12177
137	0x2527	0.02013
138	0x2df5	0.0931
139	0x30cb	0.1498
140	0x2e29	0.09625
141	0xb0e3	-0.1527
142	0xaa49	-0.0491
143	0x3039	0.132

sequential/conv2d_1/Conv2D f2 [32, 3, 3, 16]
0	0x106e	0.0005407
1	0xab4f	-0.0571
2	0x2c58	0.0679
3	0x306c	0.1382
4	0x2c62	0.0685
5	0xae9c	-0.1033
6	0xa66a	-0.02505
7	0x1ed5	0.00667
8	0xad80	-0.08594
9	0x1eb4	0.006546
10	0x21c3	0.01125
11	0x249b	0.01799
12	0x2f12	0.1105
13	0xac96	-0.07166
14	0x2bee	0.06195
15	0x28bd	0.03702
16	0x2d7f	0.0859
17	0xa5d3	-0.02275
18	0x2f08	0.10986
19	0xac19	-0.064
20	0x2de6	0.09216
21	0x2a8a	0.0511
22	0xa48e	-0.01779
23	0xa111	-0.009895
24	0xae6d	-0.1004
25	0x2d45	0.08234
26	0x2dc0	0.08984
27	0x1dbe	0.005608
28	0xb01c	-0.1284
29	0x2b79	0.05838
30	0x24ea	0.0192
31	0x2bf6	0.0622
32	0xb121	-0.1603
33	0xae06	-0.0941
34	0xad46	-0.0824
35	0xb1b4	-0.1782
36	0xa894	-0.03577
37	0x3057	0.1356
38	0x26dc	0.0268
39	0x98a4	-0.002266
40	0x28fc	0.03894
41	0xa79c	-0.02972
42	0xb2a8	-0.208
43	0xa25d	-0.01243
44	0xac1b	-0.06415
45	0x2777	0.02916
46	0x2c16	0.06384
47	0xaeca	-0.1061
48	0x2cef	0.0771
49	0xb088	-0.1416
50	0x3201	0.1876
51	0x341a	0.2563
52	0x2a27	0.04807
53	0x3228	0.1924
54	0x2d1d	0.0799
55	0x30b4	0.147
56	0x1f87	0.00735
57	0xa889	-0.03543
58	0xa5e3	-0.023
59	0xa95c	-0.04187
60	0x31c2	0.1799
61	0xad8a	-0.08655
62	0x25a1	0.02199
63	0x1f84	0.00734
64	0x3023	0.1293
65	0xadc7	-0.0903
66	0x25b1	0.02223
67	0x3081	0.1407
68	0xaeda	-0.10706
69	0x2927	0.04025
70	0x2cbf	0.07416
71	0xa538	-0.02039
72	0x2afe	0.05463
73	0xa2ce	-0.01329
74	0xafe7	-0.1235
75	0xa600	-0.02344
76	0x30b7	0.1473
77	0xa88a	-0.03546
78	0x2dd1	0.0909
79	0xb000	-0.125
80	0xaa0d	-0.04727
81	0xa072	-0.00868
82	0xae16	-0.0951
83	0xadcc	-0.0906
84	0x27f3	0.03105
85	0x24c1	0.01857
86	0xa3ad	-0.01499
87	0x2c9a	0.0719
88	0xacdd	-0.076
89	0xa84b	-0.03354
90	0x2cbc	0.074
91	0xb216	-0.1902
92	0x313c	0.1636
93	0x9ee9	-0.00675
94	0xb008	-0.126
95	0xb03e	-0.1326
96	0xae06	-0.0941
97	0xad60	-0.084
98	0x2a3e	0.04877
99	0x3046	0.1335
100	0xac61	-0.0684
101	0x3129	0.1613
102	0xac46	-0.0668
103	0x1aaf	0.003263
104	0x257b	0.02141
105	0x2fbf	0.12103
106	0xa89d	-0.03604
107	0x2daa	0.0885
108	0x2a2e	0.04828
109	0xa137	-0.010185
110	0x2995	0.0436
111	0xadfa	-0.0934
112	0x28e3	0.03818
113	0xa836	-0.0329
114	0x2858	0.03394
115	0x30ba	0.1477
116	0xb0e2	-0.1526
117	0x8566	-8.24e-05
118	0x2b4f	0.0571
119	0xaaa9	-0.05203
120	0x2f48	0.1138
121	0x262d	0.02412
122	0x2ba9	0.05984
123	0x29f9	0.04666
124	0x2cf3	0.07733
125	0xac3d	-0.0662
126	0xa8de	-0.03802
127	0xb0e0	-0.1523
128	0xac2c	-0.0652
129	0xa947	-0.04123
130	0x2f2f	0.11224
131	0xafa9	-0.1197
132	0xa64b	-0.02458
133	0xad84	-0.0862
134	0xa97f	-0.04294
135	0x2e76	0.10095
136	0xae5c	-0.09937
137	0xad76	-0.0853
138	0x2b8a	0.0589
139	0xb179	-0.171
140	0x2903	0.03915
141	0x944c	-0.001049
142	0xa847	-0.03342
143	0x29ad	0.04434
144	0xa81c	-0.0321
145	0xa44e	-0.01682
146	0x27c6	0.03036
147	0xab6e	-0.05804
148	0x31c4	0.1802
149	0xa3a6	-0.01494
150	0xaadf	-0.05368
151	0xaec7	-0.1059
152	0xadc4	-0.0901
153	0x25d9	0.02284
154	0xa92d	-0.04044
155	0x8fc0	-0.000473
156	0xb098	-0.1436
157	0xaa43	-0.04892
158	0xacae	-0.0731
159	0x2d0b	0.0788
160	0x2f0a	0.11
161	0xa1ee	-0.01158
162	0xaee2	-0.10754
163	0x2e4d	0.09845
164	0x2f07	0.1098
165	0xa742	-0.02835
166	0xa8ef	-0.03854
167	0xafee	-0.1239
168	0x2ea8	0.104
169	0x25a5	0.02205
170	0xadf3	-0.09296
171	0x1f8d	0.007374
172	0xaabf	-0.0527
173	0x2fe0	0.12305
174	0xa6d7	-0.02672
175	0x2d59	0.08356
176	0x922d	-0.000754
177	0x27d7	0.03062
178	0xb261	-0.1993
179	0x279f	0.02977
180	0xa9f6	-0.04657
181	0x2216	0.01189
182	0xae6a	-0.1002
183	0x2fee	0.1239
184	0x2986	0.04315
185	0x2d9c	0.08765
186	0x3001	0.1251
187	0x3019	0.128
188	0xaa6c	-0.05017
189	0x3113	0.1586
190	0x2c1a	0.0641
191	0xabba	-0.06036
192	0xb219	-0.1906
193	0xaf19	-0.1109
194	0xae61	-0.0997
195	0x25ee	0.02316
196	0x2b2c	0.05603
197	0x2b5c	0.0575
198	0xac5f	-0.0683
199	0x9f68	-0.007233
200	0xae5e	-0.0995
201	0x2dab	0.08856
202	0x2c5d	0.0682
203	0x288e	0.03558
204	0x271b	0.02776
205	0xb02f	-0.1307
206	0x2840	0.0332
207	0x9b7c	-0.003654
208	0xa0d1	-0.00941
209	0xacb4	-0.0735
210	0xaaf3	-0.0543
211	0xa19b	-0.01095
212	0xa9cc	-0.0453
213	0x2c55	0.0677
214	0xa7c8	-0.0304
215	0x2a38	0.04858
216	0x2c5f	0.0683
217	0xaf9e	-0.119
218	0xa52d	-0.02022
219	0x2c6d	0.06915
220	0x9450	-0.001053
221	0xad9f	-0.0878
222	0x24f6	0.01938
223	0x272d	0.02803
224	0x25fa	0.02335
225	0x9ca7	-0.004543
226	0xacd2	-0.0753
227	0x2fc4	0.12134
228	0xa856	-0.03387
229	0x2ec1	0.1055
230	0xb16d	-0.1696
231	0xb0b1	-0.1466
232	0x2fe9	0.1236
233	0x2da5	0.0882
234	0x2853	0.03378
235	0x2e2c	0.09644
236	0xb134	-0.1626
237	0xa9d5	-0.04556
238	0x2089	0.00886
239	0x2964	0.0421
240	0x2a13	0.04745
241	0xa213	-0.01186
242	0x2a49	0.0491
243	0xaee0	-0.1074
244	0xb02d	-0.1305
245	0xac24	-0.0647
246	0x24b1	0.01833
247	0xada4	-0.08813
248	0xb222	-0.1917
249	0x227d	0.01267
250	0xacdc	-0.0759
251	0x2d9d	0.0877
252	0xa7d0	-0.03052
253	0xb162	-0.1682
254	0x2c63	0.06854
255	0x2cf6	0.0775

sequential/dense/BiasAdd/ReadVariableOp f2 [64]
0	0xa560	-0.021
1	0xa13a	-0.01021
2	0xa972	-0.04254
3	0xa664	-0.02496
4	0x1c49	0.004185
5	0xa894	-0.03577
6	0x9e0d	-0.00591
7	0xac3b	-0.0661
8	0xa8e8	-0.03833
9	0xa57a	-0.0214
10	0x2394	0.0148
11	0xa941	-0.04105
12	0xa977	-0.0427
13	0xa7e8	-0.03088
14	0xa25a	-0.012405
15	0xac0c	-0.06323
16	0xa7fc	-0.03119
17	0xa8c0	-0.0371
18	0xa9ce	-0.04535
19	0xa49b	-0.01799
20	0x2113	0.00991
21	0xa440	-0.0166
22	0xa812	-0.0318
23	0xa2ed	-0.01353
24	0x13ce	0.0009527
25	0x9d76	-0.005333
26	0xa007	-0.007866
27	0x9a17	-0.002974
28	0xa717	-0.0277
29	0x941f	-0.001006
30	0xa4ed	-0.01924
31	0x2338	0.0141
32	0xa852	-0.03375
33	0x9ba4	-0.00373
34	0xa075	-0.008705
35	0xa9d9	-0.0457
36	0x2326	0.01396
37	0xa971	-0.0425
38	0xa9f1	-0.04642
39	0xa98b	-0.0433
40	0xa8f5	-0.03873
41	0xa0f2	-0.00966
42	0x22a7	0.01299
43	0xa5e0	-0.02295
44	0x2647	0.02452
45	0xa85c	-0.03406
46	0x9e22	-0.00599
47	0x9e62	-0.006233
48	0xaa0f	-0.04733
49	0xa69c	-0.02582
50	0x9f1f	-0.006954
51	0xa243	-0.01223
52	0xa9b2	-0.0445
53	0x267b	0.02531
54	0xa6cb	-0.02654
55	0xa702	-0.02737
56	0xa9a4	-0.04407
57	0xa5cf	-0.02269
58	0x1998	0.002731
59	0xa995	-0.0436
60	0xa3a7	-0.014946
61	0xa6f3	-0.02715
62	0xa813	-0.03183
63	0xa9eb	-0.04623

sequential/dense_1/BiasAdd/ReadVariableOp f2 [10]
0	0x16d1	0.001664
1	0x1a13	0.002966
2	0xad92	-0.08704
3	0x99de	-0.002865
4	0xadbd	-0.08966
5	0x30a8	0.1455
6	0xad2a	-0.0807
7	0x9adf	-0.003355
8	0x2c67	0.0688
9	0x28e4	0.0382

sequential/batch_normalization/FusedBatchNormV3 f2 [16]
0	0x4c0f	16.23
1	0x4a3f	12.49
2	0x4e04	24.06
3	0x502e	33.44
4	0x49c5	11.54
5	0x4d3a	20.9
6	0x4cfe	19.97
7	0x4d3c	20.94
8	0x4dd9	23.39
9	0x4b64	14.78
10	0x4b9a	15.2
11	0x4a2a	12.33
12	0x4b11	14.13
13	0x4853	8.65
14	0x488b	9.086
15	0x4805	8.04

sequential/batch_normalization/FusedBatchNormV31 f2 [16]
0	0xb431	-0.262
1	0xb672	-0.4028
2	0xba16	-0.7607
3	0xadb7	-0.0893
4	0xb66a	-0.401
5	0xb832	-0.5244
6	0xb92c	-0.6465
7	0xb33a	-0.2258
8	0xb040	-0.1328
9	0xb68f	-0.41
10	0xb5ba	-0.358
11	0xbc4d	-1.075
12	0xb8c0	-0.5938
13	0xba5f	-0.7964
14	0xb882	-0.5635
15	0xb61f	-0.3826

sequential/batch_normalization_1/FusedBatchNormV3 f2 [32]
0	0x4020	2.062
1	0x3c6b	1.1045
2	0x3d47	1.319
3	0x3ce2	1.221
4	0x401b	2.053
5	0x4011	2.033
6	0x3cb4	1.176
7	0x3d7b	1.37
8	0x3eb2	1.674
9	0x3d06	1.256
10	0x3a91	0.821
11	0x3f93	1.894
12	0x3cda	1.213
13	0x3c2d	1.044
14	0x3dec	1.48
15	0x3ffb	1.995
16	0x3d7f	1.374
17	0x3d69	1.353
18	0x3b78	0.9336
19	0x3ab2	0.837
20	0x3c9e	1.154
21	0x3ee9	1.728
22	0x3c81	1.126
23	0x4017	2.045
24	0x3f2e	1.795
25	0x4023	2.068
26	0x3ddc	1.465
27	0x3d18	1.273
28	0x3c3a	1.057
29	0x3bdd	0.983
30	0x3ce4	1.223
31	0x3e16	1.521

sequential/batch_normalization_1/FusedBatchNormV31 f2 [32]
0	0xbb3f	-0.906
1	0xb9b1	-0.7114
2	0xbb95	-0.9478
3	0xb980	-0.6875
4	0xb950	-0.664
5	0xba48	-0.785
6	0xbabc	-0.842
7	0xbb7b	-0.935
8	0xb896	-0.573
9	0xbc34	-1.051
10	0xb9e6	-0.7373
11	0xbd91	-1.392
12	0xbca2	-1.158
13	0xbb2b	-0.896
14	0xbbc0	-0.9688
15	0xb9ad	-0.7095
16	0xbde1	-1.47
17	0xba04	-0.752
18	0xbcf6	-1.24
19	0xb9bf	-0.7183
20	0xbd0b	-1.261
21	0xbbf8	-0.996
22	0xbc50	-1.078
23	0xbc26	-1.037
24	0xb915	-0.6353
25	0xba02	-0.751
26	0xbd12	-1.268
27	0xbd11	-1.267
28	0xbb11	-0.8833
29	0xbb91	-0.946
30	0xbb7b	-0.935
31	0xba55	-0.7915

sequential/dense/MatMul f2 [64, 800]
0	0x1261	0.0007787
1	0x2d84	0.0862
2	0xac2c	-0.0652
3	0x2934	0.04065
4	0x2c00	0.0625
5	0x2d2c	0.0808
6	0xa9ed	-0.0463
7	0xad16	-0.07947
8	0x2abb	0.05258
9	0x2612	0.02371
10	0xa8bf	-0.03708
11	0x2758	0.02869
12	0xaa3a	-0.04865
13	0xac5c	-0.0681
14	0x2448	0.01672
15	0x1ce7	0.004787
16	0x2c17	0.0639
17	0x2aac	0.05212
18	0x24aa	0.01822
19	0xa7d4	-0.03058
20	0x2997	0.04367
21	0xacbf	-0.07416
22	0xacf3	-0.07733
23	0xa93b	-0.04086
24	0xa34b	-0.014244
25	0x2a67	0.05002
26	0xac6a	-0.069
27	0x27bc	0.03021
28	0xa9ac	-0.0443
29	0xa8d4	-0.03772
30	0x2e5a	0.09924
31	0xaca5	-0.0726
32	0xb058	-0.1357
33	0xa9b9	-0.0447
34	0xa2f9	-0.01362
35	0xac78	-0.0698
36	0xad68	-0.0845
37	0xa26d	-0.01255
38	0xad51	-0.08307
39	0x213f	0.01025
40	0xa826	-0.0324
41	0xabf5	-0.06216
42	0x21e7	0.01153
43	0xa9bf	-0.0449
44	0x275d	0.02876
45	0x2da1	0.08795
46	0x2bb8	0.0603
47	0xa56e	-0.02121
48	0xa155	-0.010414
49	0x2d1e	0.07996
50	0xa7c2	-0.0303
51	0x2a6f	0.05026
52	0x2d00	0.0781
53	0xaf65	-0.11554
54	0xa132	-0.01015
55	0xa5f7	-0.0233
56	0x2509	0.01967
57	0x23f2	0.01552
58	0xb139	-0.1632
59	0x30df	0.1522
60	0xac48	-0.0669
61	0x2492	0.01785
62	0x2941	0.04105
63	0x2cab	0.07294
64	0xae46	-0.098
65	0x2d8c	0.0867
66	0xaf4d	-0.1141
67	0xaccb	-0.0749
68	0xac93	-0.0715
69	0x2dde	0.0917
70	0x2a60	0.0498
71	0x26b5	0.0262
72	0xa96b	-0.04233
73	0x2605	0.02351
74	0x1e75	0.006306
75	0xad54	-0.08325
76	0x22bb	0.013145
77	0x2f50	0.11426
78	0x94ac	-0.001141
79	0xac69	-0.0689
80	0xa893	-0.03574
81	0x2980	0.04297
82	0x1f51	0.007145
83	0xa87a	-0.03497
84	0x1a4c	0.003075
85	0xacf2	-0.0773
86	0x2507	0.01964
87	0xa8fd	-0.03897
88	0x961a	-0.00149
89	0xa857	-0.0339
90	0xac11	-0.06354
91	0x3060	0.1367
92	0x2591	0.02174
93	0x2708	0.02747
94	0x23b3	0.01504
95	0xab07	-0.0549
96	0x28b1	0.03665
97	0xa142	-0.01027
98	0xaeae	-0.1044
99	0x1411	0.000993
100	0xa087	-0.00884
101	0x2cef	0.0771
102	0x9bcb	-0.003805
103	0xa604	-0.0235
104	0x2f45	0.1136
105	0xaa5f	-0.04977
106	0xa6c9	-0.0265
107	0xa744	-0.02838
108	0x24b1	0.01833
109	0x25c3	0.0225
110	0x2670	0.02515
111	0xacf8	-0.07764
112	0x28c1	0.03714
113	0x2524	0.02008
114	0x295a	0.0418
115	0xadc0	-0.08984
116	0xa28b	-0.01278
117	0xae14	-0.095
118	0xa457	-0.01695
119	0x2086	0.008835
120	0x988e	-0.002224
121	0x24cf	0.01878
122	0xaa3a	-0.04865
123	0x2bb5	0.0602
124	0xad3f	-0.082
125	0xa550	-0.02075
126	0x277e	0.02927
127	0x25d2	0.02274
128	0xafb1	-0.1202
129	0x2d00	0.0781
130	0xaf10	-0.11035
131	0xa5c8	-0.02258
132	0x9f7c	-0.00731
133	0x1e12	0.005928
134	0x2737	0.02818
135	0x2ce0	0.0762
136	0xa591	-0.02174
137	0xa8b1	-0.03665
138	0xa818	-0.03198
139	0x280c	0.03162
140	0x1f58	0.00717
141	0x2d7b	0.08563
142	0x2d3c	0.0818
143	0xa9fa	-0.0467
144	0x307f	0.1405
145	0x26f1	0.02711
146	0xa858	-0.03394
147	0xacd5	-0.0755
148	0xaccd	-0.075
149	0xadc7	-0.0903
150	0xae8e	-0.1024
151	0xa9da	-0.04572
152	0x1028	0.0005074
153	0xadb9	-0.0894
154	0xa798	-0.02966
155	0xa95e	-0.04193
156	0x9953	-0.0026
157	0x3010	0.127
158	0x2f23	0.1115
159	0x2dd9	0.0914
160	0xad54	-0.08325
161	0xa995	-0.0436
162	0xa17f	-0.010735
163	0xac4a	-0.067
164	0xa451	-0.01686
165	0xa38a	-0.014725
166	0x28b7	0.03683
167	0x2dc5	0.09015
168	0xac5f	-0.0683
169	0x24ab	0.01823
170	0xad6d	-0.0848
171	0x2cab	0.07294
172	0x9870	-0.002167
173	0x2d46	0.0824
174	0x25af	0.0222
175	0x25d6	0.0228
176	0x2dd5	0.0911
177	0x13c7	0.0009494
178	0x2e18	0.0952
179	0x29a7	0.04416
180	0x305f	0.1366
181	0x2a10	0.04736
182	0x2d3b	0.0817
183	0x2bcc	0.0609
184	0x2d92	0.08704
185	0xa187	-0.010796
186	0x1d5f	0.005245
187	0x2c7f	0.07025
188	0x2afc	0.05457
189	0x1737	0.001761
190	0x2e8f	0.1025
191	0x2a12	0.04742
192	0xa958	-0.04175
193	0x2aa5	0.0519
194	0x8b72	-0.0002272
195	0xae5d	-0.0994
196	0xb04f	-0.1346
197	0xab3b	-0.0565
198	0x01b9	2.63e-05
199	0x2c0d	0.0633
200	0xa977	-0.0427
201	0xab5e	-0.05756
202	0x1c1c	0.004013
203	0x2714	0.02765
204	0xad81	-0.086
205	0x219f	0.01098
206	0x22f0	0.01355
207	0x1ed0	0.006653
208	0x2877	0.03488
209	0x2549	0.02065
210	0x296e	0.04242
211	0xa87b	-0.035
212	0x215c	0.01047
213	0xa96e	-0.04242
214	0xae04	-0.094
215	0xaa27	-0.04807
216	0x2b7d	0.0585
217	0x309d	0.1442
218	0xaf24	-0.1116
219	0x2b7b	0.05844
220	0x1ea5	0.00649
221	0x2559	0.02089
222	0x2c98	0.0718
223	0xab87	-0.0588
224	0x2666	0.025
225	0x2e0b	0.0944
226	0x1f46	0.007103
227	0xae7e	-0.10144
228	0xac37	-0.06586
229	0x2810	0.03174
230	0x27e9	0.0309
231	0x2cf2	0.0773
232	0xa398	-0.01483
233	0x29bd	0.04483
234	0xac68	-0.06885
235	0x278b	0.02946
236	0x2358	0.01434
237	0x217e	0.01073
238	0x278d	0.0295
239	0xad46	-0.0824
240	0x2aa6	0.05194
241	0x2b43	0.05673
242	0x1ee1	0.006718
243	0x2c0f	0.0634
244	0xabb9	-0.06033
245	0xabfd	-0.0624
246	0xabeb	-0.06186
247	0x23d5	0.0153
248	0x2f69	0.1158
249	0x1b10	0.003448
250	0x1dad	0.005543
251	0x221a	0.01192
252	0x267d	0.02534
253	0x2776	0.02914
254	0x9d26	-0.005028
255	0xad9b	-0.0876

sequential/dense_1/MatMul f2 [10, 64]
0	0x3361	0.2306
1	0x322a	0.1926
2	0x2b3b	0.0565
3	0x2e62	0.09973
4	0xab40	-0.05664
5	0x3059	0.1359
6	0xb282	-0.2034
7	0xb200	-0.1875
8	0x31cf	0.1815
9	0x156e	0.001326
10	0x34ad	0.2922
11	0x2e4b	0.0983
12	0xa984	-0.0431
13	0x2ea9	0.10406
14	0xb589	-0.346
15	0xada9	-0.08844
16	0x14a9	0.001138
17	0xb4c9	-0.299
18	0x2f04	0.1096
19	0x340f	0.2537
20	0xb352	-0.2288
21	0xad35	-0.08136
22	0x2c45	0.0667
23	0x25f8	0.02332
24	0xb2e3	-0.2152
25	0xacf5	-0.07745
26	0x1d3c	0.00511
27	0xaadc	-0.0536
28	0x32a1	0.2072
29	0xb1ff	-0.1874
30	0xb52c	-0.3232
31	0x2c05	0.0628
32	0xb370	-0.2324
33	0xb473	-0.278
34	0x3346	0.2273
35	0xb523	-0.321
36	0xb595	-0.3489
37	0x2daf	0.0888
38	0xa03b	-0.00826
39	0xb459	-0.2717
40	0xaf4c	-0.114
41	0xb21d	-0.191
42	0xaff2	-0.12415
43	0xb705	-0.4387
44	0x318d	0.1735
45	0xb61d	-0.382
46	0xb4a1	-0.2893
47	0xb0ad	-0.1461
48	0xb67a	-0.4048
49	0xb4a0	-0.289
50	0x3196	0.1746
51	0xacb2	-0.07336
52	0x3463	0.2742
53	0xa9a5	-0.0441
54	0x3161	0.1681
55	0x2f29	0.1119
56	0x3549	0.3303
57	0x34b4	0.294
58	0xb07c	-0.1401
59	0xb082	-0.1409
60	0x2d77	0.0854
61	0xb150	-0.166
62	0xb2f5	-0.2174
63	0xb444	-0.2666
64	0xb19e	-0.1755
65	0xb181	-0.172
66	0xb21e	-0.1912
67	0x2f36	0.1127
68	0xaec9	-0.106
69	0x3413	0.2546
70	0x34bb	0.2957
71	0xb49f	-0.2888
72	0xb20e	-0.1892
73	0x33e3	0.2465
74	0x34f3	0.3093
75	0x32fd	0.2184
76	0xb1f2	-0.1858
77	0xb43a	-0.2642
78	0xb041	-0.1329
79	0xb043	-0.1332
80	0xb43a	-0.2642
81	0xb122	-0.1604
82	0xb601	-0.3752
83	0xb26d	-0.2008
84	0x31eb	0.1849
85	0xb6ab	-0.4167
86	0xac88	-0.0708
87	0xacfa	-0.07776
88	0xb1ac	-0.1772
89	0x34ee	0.308
90	0xb57e	-0.3433
91	0xb1f1	-0.1857
92	0xb232	-0.1936
93	0x32ca	0.2122
94	0x3578	0.3418
95	0xaf9d	-0.11896
96	0x316e	0.1697
97	0x2d30	0.08105
98	0x2dc2	0.08997
99	0xb4b8	-0.295
100	0x34ed	0.3079
101	0xb377	-0.2333
102	0xb36e	-0.2322
103	0x2818	0.03198
104	0x3512	0.317
105	0xa61e	-0.0239
106	0x30c9	0.1495
107	0xb224	-0.1919
108	0x32e4	0.2153
109	0x3036	0.1316
110	0xaaa2	-0.05182
111	0x344e	0.269
112	0xb0b5	-0.1471
113	0xb451	-0.2698
114	0x341b	0.2566
115	0xb2d4	-0.2134
116	0xb256	-0.198
117	0x3325	0.2233
118	0xb295	-0.2057
119	0xb365	-0.2311
120	0x313d	0.1637
121	0xb4cb	-0.2996
122	0x30cd	0.15
123	0x313a	0.1633
124	0x2f80	0.1172
125	0x2fe3	0.1232
126	0x269e	0.02585
127	0x2436	0.01645
128	0x2fd3	0.12225
129	0x3108	0.1572
130	0xb1c7	-0.1805
131	0x326f	0.201
132	0xacd6	-0.07556
133	0xb44f	-0.2693
134	0x2a81	0.0508
135	0xb210	-0.1895
136	0x30ea	0.1536
137	0x33e0	0.2461
138	0xb089	-0.1417
139	0xb49f	-0.2888
140	0xb4d8	-0.3027
141	0x325f	0.1991
142	0x317b	0.1713
143	0xada7	-0.0883
144	0xb532	-0.3247
145	0x340b	0.2527
146	0xb0e5	-0.153
147	0xa98c	-0.04333
148	0x30d5	0.151
149	0x31b8	0.1787
150	0x3131	0.1622
151	0x328b	0.2045
152	0x2c76	0.0697
153	0xb072	-0.1389
154	0x3017	0.1278
155	0xb024	-0.1294
156	0x32af	0.2089
157	0x2f6f	0.11615
158	0x322b	0.1927
159	0x31b3	0.1781
160	0xac44	-0.06665
161	0x2ed3	0.1066
162	0xb5e3	-0.368
163	0x2f9a	0.1188
164	0x2d8a	0.08655
165	0xb413	-0.2546
166	0xb38b	-0.2357
167	0xb3a5	-0.2389
168	0xaf46	-0.11365
169	0xb4cb	-0.2996
170	0x317d	0.1715
171	0xa5d3	-0.02275
172	0xb599	-0.3499
173	0xb2cd	-0.2125
174	0x2a86	0.05096
175	0x326d	0.2008
176	0xb2bb	-0.2103
177	0xb28d	-0.2047
178	0xb4ae	-0.2925
179	0x32a2	0.2073
180	0xb405	-0.2512
181	0x339e	0.238
182	0x2cc3	0.0744
183	0xb4f3	-0.3093
184	0x2822	0.0323
185	0x3417	0.2556
186	0xaadc	-0.0536
187	0x30c9	0.1495
188	0xb11d	-0.1598
189	0x33b6	0.241
190	0x3128	0.1611
191	0x21ad	0.011086
192	0xa967	-0.0422
193	0xb44e	-0.269
194	0x341b	0.2566
195	0xb3f2	-0.2483
196	0xb6ac	-0.417
197	0xb20c	-0.189
198	0xb583	-0.3445
199	0x30c6	0.1492
200	0xac4d	-0.0672
201	0x3382	0.2346
202	0xae21	-0.09576
203	0x33b4	0.2407
204	0xb3a8	-0.2393
205	0xac54	-0.0676
206	0x3409	0.2522
207	0xb4e9	-0.307
208	0x2dbd	0.08966
209	0x3414	0.255
210	0xb2d4	-0.2134
211	0xb511	-0.3167
212	0xae7d	-0.1014
213	0x2d4a	0.08264
214	0x2f96	0.1185
215	0xb45c	-0.2725
216	0x2f86	0.11755
217	0xb17c	-0.1714
218	0x3507	0.3142
219	0xac49	-0.06696
220	0xb2c4	-0.2114
221	0xb4bb	-0.2957
222	0x25b7	0.02232
223	0x2bf0	0.062
224	0x33dc	0.2456
225	0xaaba	-0.05255
226	0x2286	0.01274
227	0xb462	-0.274
228	0xb38a	-0.2356
229	0xae53	-0.0988
230	0xb2c3	-0.2113
231	0x306e	0.1384
232	0xa972	-0.04254
233	0x2b51	0.05716
234	0x2fb1	0.1202
235	0xb1cc	-0.1812
236	0xb377	-0.2333
237	0x3227	0.1923
238	0x3036	0.1316
239	0xb45b	-0.2722
240	0x2b3a	0.05646
241	0xb2f0	-0.2168
242	0xb105	-0.1569
243	0x226b	0.012535
244	0x9e10	-0.00592
245	0x244a	0.01675
246	0xb1f7	-0.1864
247	0x2dd8	0.0913
248	0xabda	-0.06134
249	0xb4ae	-0.2925
250	0xadcc	-0.0906
251	0xab30	-0.05615
252	0xb50e	-0.316
253	0x3406	0.2515
254	0xb1ab	-0.1771
255	0x2b44	0.05676
