models/mnist_model.tflite (tflite, 119956 bytes, 12 tensors)

sequential/conv2d/BiasAdd/ReadVariableOp f2 [16]
0	0x261e	0.0239
1	0x2aba	0.05255
2	0xa57a	-0.0214
3	0x1fb5	0.007526
4	0x28dc	0.03796
5	0xab56	-0.0573
6	0xabcf	-0.061
7	0xb169	-0.1691
8	0x24cb	0.01872
9	0x2609	0.02357
10	0x29b7	0.04465
11	0x2a9e	0.0517
12	0x1e40	0.006104
13	0x283d	0.0331
14	0xa42a	-0.01627
15	0xae1f	-0.09564

sequential/conv2d_1/BiasAdd/ReadVariableOp f2 [32]
0	0xb0ac	-0.146
1	0xb35a	-0.2297
2	0xb549	-0.3303
3	0xac0f	-0.0634
4	0xb3d0	-0.2441
5	0xae16	-0.0951
6	0xaf23	-0.1115
7	0xb504	-0.3135
8	0xb613	-0.3796
9	0xb463	-0.2742
10	0xb2dc	-0.2144
11	0xb2d3	-0.2133
12	0xb4ac	-0.292
13	0xb341	-0.2267
14	0xb1e9	-0.1847
15	0xb1ee	-0.1853
16	0xb204	-0.188
17	0xb110	-0.1582
18	0xb23c	-0.1948
19	0xb4f6	-0.31
20	0xb854	-0.541
21	0xb1b1	-0.1779
22	0xad02	-0.07825
23	0xb695	-0.4114
24	0xb4ad	-0.2922
25	0x2ab0	0.05225
26	0xb69d	-0.4133
27	0xaf58	-0.11475
28	0xacdd	-0.076
29	0xaf24	-0.1116
30	0xab3a	-0.05646
31	0xb43c	-0.2646

sequential/conv2d/Conv2D f2 [16, 3, 3, 1]
0	0xb166	-0.1687
1	0xb13f	-0.164
2	0x2a79	0.05057
3	0xb242	-0.1956
4	0x2fd9	0.1226
5	0x3041	0.1329
6	0xb20b	-0.1888
7	0xaf23	-0.1115
8	0x2d14	0.07935
9	0xb35d	-0.2301
10	0xb564	-0.337
11	0xb412	-0.2544
12	0xb0f1	-0.1544
13	0x3181	0.172
14	0xa94b	-0.04135
15	0x2fe6	0.1234
16	0x2de7	0.0922
17	0x3071	0.1388
18	0x2866	0.03436
19	0x2e7d	0.1014
20	0xad5c	-0.08374
21	0x28d3	0.0377
22	0x31b7	0.1786
23	0x3296	0.2058
24	0xb032	-0.1311
25	0xb1f0	-0.1855
26	0xa45e	-0.01706
27	0xa1f0	-0.0116
28	0xa962	-0.04205
29	0x2a18	0.0476
30	0xaa37	-0.04855
31	0xb299	-0.2062
32	0x3121	0.1603
33	0xae9c	-0.1033
34	0x1c83	0.004406
35	0x314b	0.1654
36	0xaf3d	-0.1131
37	0x2ebc	0.1052
38	0x3311	0.2208
39	0x9cb9	-0.004612
40	0x2d70	0.08496
41	0xafe9	-0.1236
42	0x2e27	0.0961
43	0xb267	-0.2001
44	0xaf60	-0.11523
45	0x223c	0.01218
46	0xafc5	-0.1214
47	0xa52c	-0.0202
48	0x2aa7	0.05197
49	0x3436	0.2632
50	0x30f8	0.1553
51	0xa887	-0.03537
52	0xb180	-0.1719
53	0x9ae2	-0.00336
54	0xaf88	-0.1177
55	0xadba	-0.0895
56	0x2e1c	0.09546
57	0xb055	-0.1354
58	0x2ff0	0.124
59	0x2efb	0.1091
60	0x2646	0.0245
61	0x30ff	0.1561
62	0xb01c	-0.1284
63	0xac52	-0.0675
64	0x33f7	0.2489
65	0xb217	-0.1903
66	0xa4e5	-0.01912
67	0x2fef	0.12396
68	0x313e	0.1638
69	0xb325	-0.2233
70	0xb0c6	-0.1492
71	0x318f	0.1737
72	0xabde	-0.06146
73	0xaa8d	-0.05118
74	0x3120	0.1602
75	0xa9be	-0.04486
76	0xb445	-0.2668
77	0x27e1	0.03078
78	0x33b2	0.2405
79	0xa9cb	-0.04526
80	0xaef4	-0.10864
81	0x2f22	0.11145
82	0x2ba9	0.05984
83	0x2806	0.03143
84	0x27f7	0.03111
85	0x1df3	0.00581
86	0xac2e	-0.0653
87	0xafda	-0.1227
88	0x3250	0.1973
89	0x31ba	0.179
90	0xb13e	-0.1638
91	0x2fda	0.1227
92	0x3032	0.1311
93	0xac22	-0.0646
94	0x33a5	0.2389
95	0xb00c	-0.1265
96	0x29d5	0.04556
97	0x307f	0.1405
98	0x3100	0.1562
99	0x3160	0.168
100	0x2e97	0.10297
101	0x2aa3	0.05185
102	0x2d10	0.0791
103	0x2c28	0.06494
104	0xb197	-0.1747
105	0xb3da	-0.2454
106	0xb49b	-0.2878
107	0x1ed3	0.006664
108	0xaa76	-0.05048
109	0x2f96	0.1185
110	0x31cd	0.1813
111	0xb590	-0.3477
112	0xa31e	-0.0139
113	0x2244	0.01224
114	0xaebf	-0.1054
115	0xb3c5	-0.2428
116	0xb055	-0.1354
117	0xaa6e	-0.05023
118	0x9eea	-0.006752
119	0x303d	0.1324
120	0x30f1	0.1544
121	0x3078	0.1396
122	0x300b	0.1263
123	0xadcd	-0.09064
124	0xaff4	-0.12427
125	0xb2f0	-0.2168
126	0xb467	-0.2751
127	0x30ae	0.1462
128	0x30e7	0.1532
129	0xabc9	-0.06082
130	0xaee1	-0.1075
131	0x24a2	0.0181
132	0x32a6	0.2078
133	0xa990	-0.04346
134	0x30d4	0.1509
135	0x2dee	0.09265
136	0xb170	-0.1699
137	0xaa2a	-0.04816
138	0x2cc4	0.07446
139	0xb32b	-0.224
140	0x2c22	0.0646
141	0x3401	0.2502
142	0x28de	0.03802
143	0x286c	0.03455

sequential/conv2d_1/Conv2D f2 [32, 3, 3, 16]
0	0x3025	0.1295
1	0x3371	0.2325
2	0xad9d	-0.0877
3	0x270e	0.02756
4	0xb19d	-0.1754
5	0xb232	-0.1936
6	0x2b50	0.05713
7	0xb048	-0.1338
8	0x30cd	0.15
9	0xb065	-0.1373
10	0x2708	0.02747
11	0xb1c4	-0.1802
12	0x2828	0.03247
13	0xa41e	-0.01608
14	0xa605	-0.02351
15	0xad96	-0.0873
16	0xb04d	-0.1344
17	0x2345	0.0142
18	0xaa17	-0.04758
19	0xb2dd	-0.2145
20	0xb179	-0.171
21	0xabb1	-0.0601
22	0xad2f	-0.081
23	0x2b90	0.05908
24	0xb096	-0.1433
25	0xa754	-0.02863
26	0xa3ad	-0.01499
27	0xac6e	-0.0692
28	0x9345	-0.0008874
29	0xb1bd	-0.1793
30	0xa08c	-0.00888
31	0x9d17	-0.00497
32	0x2b18	0.05542
33	0x30a3	0.1449
34	0xb040	-0.1328
35	0x9ca5	-0.004536
36	0xb01a	-0.1282
37	0x26c1	0.02638
38	0xb156	-0.1667
39	0x2d0c	0.07886
40	0xa693	-0.02568
41	0x1480	0.001099
42	0xadc7	-0.0903
43	0xaef7	-0.1088
44	0xb068	-0.1377
45	0xafae	-0.12
46	0x29e8	0.04614
47	0x2c7b	0.07
48	0x27db	0.03069
49	0x2cc7	0.07465
50	0xa97b	-0.04282
51	0xac24	-0.0647
52	0xa83d	-0.0331
53	0x2799	0.02968
54	0xace2	-0.0763
55	0x2f02	0.1095
56	0xa4b0	-0.01831
57	0xa8a6	-0.03632
58	0xa3f9	-0.01557
59	0x2642	0.02444
60	0xb422	-0.2583
61	0x27e8	0.03088
62	0x2e52	0.09875
63	0xab59	-0.0574
64	0xafb1	-0.1202
65	0xae60	-0.0996
66	0x2c55	0.0677
67	0xad8d	-0.08673
68	0xa3cc	-0.01523
69	0xaf84	-0.11743
70	0xaf59	-0.1148
71	0xa82f	-0.03268
72	0x1708	0.001717
73	0xaf6b	-0.1159
74	0xadc3	-0.09
75	0xae2e	-0.09656
76	0xafbc	-0.12085
77	0x2d97	0.08734
78	0xa988	-0.0432
79	0xa707	-0.02745
80	0x320c	0.189
81	0x24fe	0.0195
82	0x311d	0.1598
83	0xa9bf	-0.0449
84	0xa8e8	-0.03833
85	0x3115	0.1588
86	0x2842	0.03326
87	0x2e6e	0.10046
88	0x9ecc	-0.006638
89	0x258d	0.02168
90	0x2cfb	0.0778
91	0x258a	0.02164
92	0xa20b	-0.0118
93	0x3066	0.1375
94	0xaa5c	-0.04968
95	0xae1f	-0.09564
96	0x301c	0.1284
97	0x28a0	0.03613
98	0x2cec	0.0769
99	0x30f8	0.1553
100	0xad3d	-0.08185
101	0x31d5	0.1823
102	0x2d4d	0.0828
103	0x0ab0	0.0002041
104	0x28fa	0.03888
105	0x31a8	0.1768
106	0x3077	0.1395
107	0xac7c	-0.07007
108	0xac37	-0.06586
109	0x3095	0.1432
110	0xad80	-0.08594
111	0x2f32	0.1124
112	0xae3d	-0.0975
113	0x29fc	0.04675
114	0x304b	0.1342
115	0xb08b	-0.142
116	0x23e6	0.01543
117	0xa6de	-0.02682
118	0xb1b3	-0.1781
119	0xa401	-0.01564
120	0xad81	-0.086
121	0x2bc4	0.06067
122	0xaad7	-0.05344
123	0x26e4	0.02692
124	0x2718	0.02771
125	0xa57c	-0.02142
126	0x22c3	0.01321
127	0x335b	0.2299
128	0x29e1	0.04593
129	0xad3c	-0.0818
130	0xb007	-0.1259
131	0x30af	0.1464
132	0xb0cc	-0.1499
133	0xb043	-0.1332
134	0x98f2	-0.002415
135	0x2977	0.0427
136	0x25ef	0.02318
137	0x2945	0.04117
138	0xa11b	-0.00997
139	0x9de0	-0.005737
140	0x2a19	0.04764
141	0xb0fb	-0.1556
142	0x30de	0.1521
143	0x3068	0.1377
144	0x9e96	-0.00643
145	0x302e	0.1306
146	0xaf4a	-0.1139
147	0x3196	0.1746
148	0xb245	-0.1959
149	0xa0e1	-0.00953
150	0xad52	-0.0831
151	0x9b60	-0.003601
152	0xa8da	-0.0379
153	0xb079	-0.1398
154	0xa96f	-0.04245
155	0xb0fa	-0.1555
156	0xa8fc	-0.03894
157	0xa8e6	-0.03827
158	0x3101	0.1564
159	0xa8a7	-0.03635
160	0x2fca	0.1217
161	0x2e95	0.10284
162	0x2866	0.03436
163	0x2f40	0.1133
164	0xac81	-0.0704
165	0x2d7f	0.0859
166	0x29b4	0.04456
167	0x2bf3	0.0621
168	0xa020	-0.00806
169	0x2a5a	0.04962
170	0x2b38	0.0564
171	0x9e16	-0.005943
172	0x2a9d	0.05167
173	0xad59	-0.08356
174	0x3151	0.1661
175	0x2538	0.02039
176	0xacdc	-0.0759
177	0xaf37	-0.11273
178	0xaa1b	-0.0477
179	0xb031	-0.131
180	0xaf00	-0.1094
181	0x27dc	0.0307
182	0xa030	-0.00818
183	0xafc6	-0.12146
184	0x31d3	0.182
185	0xa820	-0.03223
186	0xa96e	-0.04242
187	0xad06	-0.0785
188	0xaea6	-0.1039
189	0x2951	0.04153
190	0xb04c	-0.1343
191	0xab26	-0.05585
192	0x256e	0.02121
193	0xad41	-0.0821
194	0x2c00	0.0625
195	0x309f	0.1444
196	0xaacb	-0.05307
197	0x2c26	0.0648
198	0xafd0	-0.1221
199	0x266a	0.02505
200	0x321b	0.1908
201	0xab03	-0.05478
202	0x2f66	0.1156
203	0xacec	-0.0769
204	0x2cdc	0.0759
205	0x2e5a	0.09924
206	0xaf69	-0.1158
207	0xb04f	-0.1346
208	0xa645	-0.02449
209	0x26b5	0.0262
210	0xa797	-0.02965
211	0x2b96	0.05927
212	0x22ed	0.01353
213	0xad6e	-0.08484
214	0xa232	-0.0121
215	0xac33	-0.0656
216	0xadfd	-0.09357
217	0xad64	-0.0842
218	0x2c73	0.0695
219	0x2cd7	0.0756
220	0xa9a0	-0.04395
221	0x2c47	0.06683
222	0xaf2f	-0.11224
223	0xb1dd	-0.1832
224	0x2df1	0.09283
225	0xb153	-0.1664
226	0xab57	-0.05734
227	0xae20	-0.0957
228	0xa7f4	-0.03107
229	0xabf4	-0.06213
230	0xaf58	-0.11475
231	0xb18c	-0.1733
232	0xad34	-0.0813
233	0xb196	-0.1746
234	0xa884	-0.03528
235	0x2a86	0.05096
236	0xb47f	-0.281
237	0xa0fb	-0.00973
238	0xb1bf	-0.1796
239	0xb20f	-0.1893
240	0x2b6f	0.05807
241	0xb2ca	-0.2122
242	0x1506	0.001226
243	0x259c	0.02191
244	0x2081	0.0088
245	0x2770	0.02905
246	0xa860	-0.03418
247	0x297d	0.04288
248	0x3060	0.1367
249	0xaf80	-0.1172
250	0xb300	-0.2188
251	0x3022	0.1292
252	0x34ea	0.3071
253	0x2e30	0.0967
254	0xae75	-0.1009
255	0xaa46	-0.049

sequential/dense/BiasAdd/ReadVariableOp f2 [64]
0	0xacd8	-0.0757
1	0xa8bc	-0.037
2	0x99df	-0.002867
3	0xad20	-0.0801
4	0xa741	-0.02834
5	0xabec	-0.0619
6	0xac63	-0.06854
7	0xa6a3	-0.02592
8	0xa513	-0.01982
9	0xa3dc	-0.01535
10	0xaaac	-0.05212
11	0x93ff	-0.000976
12	0xac9b	-0.07196
13	0xaa41	-0.04886
14	0xac9a	-0.0719
15	0x1ff2	0.00776
16	0xa04b	-0.008385
17	0xaaa7	-0.05197
18	0x28e8	0.03833
19	0x1f4e	0.007133
20	0x1d5a	0.005226
21	0xab40	-0.05664
22	0xabea	-0.06183
23	0xaca9	-0.0728
24	0xaa98	-0.0515
25	0xaa02	-0.04694
26	0x258d	0.02168
27	0xabd6	-0.06122
28	0xaa1f	-0.04782
29	0xa88a	-0.03546
30	0xaedd	-0.10724
31	0xa8e7	-0.0383
32	0xad3a	-0.08167
33	0xa354	-0.01431
34	0xa669	-0.02504
35	0x2124	0.01004
36	0xacf6	-0.0775
37	0xa044	-0.00833
38	0xad1d	-0.0799
39	0xaa67	-0.05002
40	0x292f	0.0405
41	0x173d	0.001767
42	0xa783	-0.02934
43	0xa9ff	-0.04684
44	0xaa65	-0.04996
45	0x155a	0.001307
46	0xaa17	-0.04758
47	0xaa6f	-0.05026
48	0xabdc	-0.0614
49	0x2680	0.02539
50	0xa777	-0.02916
51	0xaa03	-0.04697
52	0x2295	0.012856
53	0x94fd	-0.001218
54	0xab07	-0.0549
55	0xa36b	-0.01449
56	0xac66	-0.0687
57	0xac4b	-0.0671
58	0x9a95	-0.003214
59	0xa88d	-0.03555
60	0xa0f7	-0.0097
61	0xaad7	-0.05344
62	0xab85	-0.05875
63	0xa97f	-0.04294

sequential/dense_1/BiasAdd/ReadVariableOp f2 [10]
0	0x25f1	0.02321
1	0x2507	0.01964
2	0xa99f	-0.0439
3	0x2f56	0.1146
4	0x994d	-0.002588
5	0xae76	-0.10095
6	0xb325	-0.2233
7	0xad12	-0.0792
8	0x3067	0.1376
9	0x2d5a	0.0836

sequential/batch_normalization/FusedBatchNormV3 f2 [16]
0	0x4c30	16.75
1	0x4a85	13.04
2	0x483a	8.45
3	0x4978	10.94
4	0x4a14	12.16
5	0x49a1	11.26
6	0x4b7b	14.96
7	0x4c4a	17.16
8	0x4d09	20.14
9	0x453b	5.23
10	0x4403	4.01
11	0x492f	10.37
12	0x4d29	20.64
13	0x47d9	7.848
14	0x45dc	5.86
15	0x4bb8	15.44

sequential/batch_normalization/FusedBatchNormV31 f2 [16]
0	0xb7f1	-0.4963
1	0xb97f	-0.687
2	0xb2dc	-0.2144
3	0xb90f	-0.6323
4	0xbae9	-0.864
5	0xb264	-0.1997
6	0xb7dc	-0.4912
7	0xa951	-0.04153
8	0xbb40	-0.9062
9	0xb679	-0.4045
10	0xb5b1	-0.3557
11	0xbc24	-1.035
12	0xb07f	-0.1405
13	0xb6fd	-0.4368
14	0x30a2	0.1448
15	0xac18	-0.06396

sequential/batch_normalization_1/FusedBatchNormV3 f2 [32]
0	0x394d	0.6626
1	0x3cbf	1.187
2	0x3c7a	1.119
3	0x388f	0.57
4	0x3947	0.6597
5	0x3a6f	0.804
6	0x3c68	1.102
7	0x3809	0.5044
8	0x3d09	1.259
9	0x378f	0.4724
10	0x3924	0.6426
11	0x34e1	0.305
12	0x3e0b	1.511
13	0x3c14	1.02
14	0x3a19	0.762
15	0x386d	0.553
16	0x3b0e	0.882
17	0x3a3c	0.7793
18	0x399c	0.701
19	0x39ab	0.7085
20	0x3d45	1.317
21	0x3942	0.657
22	0x37d0	0.4883
23	0x3dbe	1.436
24	0x3cb8	1.18
25	0x3d55	1.333
26	0x38f7	0.6206
27	0x3c5c	1.09
28	0x3dfa	1.494
29	0x3a60	0.797
30	0x39dd	0.733
31	0x3d19	1.274

sequential/batch_normalization_1/FusedBatchNormV31 f2 [32]
0	0xbbad	-0.9595
1	0xb5a3	-0.3523
2	0xb80c	-0.506
3	0xb8ea	-0.6143
4	0xb94e	-0.663
5	0xb8bd	-0.5923
6	0xba2f	-0.773
7	0xb8e0	-0.6094
8	0xb60a	-0.3774
9	0xb541	-0.3284
10	0xb73d	-0.4524
11	0xb858	-0.543
12	0xb7e2	-0.4927
13	0xb6d7	-0.4275
14	0xb864	-0.549
15	0xb997	-0.6987
16	0xb989	-0.692
17	0xb9ff	-0.7495
18	0xb848	-0.535
19	0xb69d	-0.4133
20	0xb702	-0.438
21	0xb8f5	-0.6196
22	0xb4d5	-0.302
23	0xb546	-0.3296
24	0xb7f3	-0.4968
25	0xb9da	-0.7314
26	0xb846	-0.534
27	0xb5ef	-0.3708
28	0xb9ef	-0.7417
29	0xb625	-0.384
30	0xba13	-0.7593
31	0xb8b2	-0.587

sequential/dense/MatMul f2 [64, 800]
0	0x31d0	0.1816
1	0x28a3	0.03622
2	0x2b5a	0.05743
3	0x3113	0.1586
4	0xa46a	-0.01724
5	0x2afc	0.05457
6	0x2cc2	0.07434
7	0x2cc7	0.07465
8	0x2dfb	0.09344
9	0x2e4a	0.09827
10	0xabfe	-0.06244
11	0x2c46	0.0668
12	0x2cbd	0.07404
13	0xa54c	-0.02069
14	0x2d14	0.07935
15	0x2c20	0.06445
16	0x28b3	0.0367
17	0x2cb2	0.07336
18	0x2ca9	0.0728
19	0x2e8d	0.10236
20	0x2f95	0.11847
21	0x2e16	0.0951
22	0x2cf3	0.07733
23	0x3092	0.1428
24	0x23fa	0.01558
25	0x275e	0.02878
26	0x308c	0.1421
27	0x2c98	0.0718
28	0x322c	0.1929
29	0x332b	0.224
30	0x288e	0.03558
31	0x2e2b	0.0964
32	0x3332	0.2249
33	0xaade	-0.05365
34	0x2ba4	0.0597
35	0x2c6a	0.069
36	0xaa0c	-0.04724
37	0xac85	-0.0706
38	0x3040	0.1328
39	0x30da	0.1516
40	0xa8c7	-0.03732
41	0x3040	0.1328
42	0xa857	-0.0339
43	0x234b	0.014244
44	0x2391	0.01478
45	0x2d12	0.0792
46	0x2fcc	0.1218
47	0x31a7	0.1766
48	0x3035	0.1315
49	0x28e6	0.03827
50	0x2ac9	0.053
51	0x2ce0	0.0762
52	0xa809	-0.03152
53	0x3002	0.1252
54	0x2aea	0.05402
55	0x20d5	0.00944
56	0xa51a	-0.01993
57	0x15b2	0.00139
58	0x2f7a	0.1168
59	0xaaa8	-0.052
60	0x3064	0.1372
61	0x2d82	0.08606
62	0x2610	0.02368
63	0x2e08	0.09424
64	0xad70	-0.08496
65	0xa9a6	-0.04413
66	0x272f	0.02806
67	0x2fe1	0.1231
68	0x307b	0.14
69	0xab5c	-0.0575
70	0x2f05	0.1097
71	0x2b88	0.05884
72	0xa602	-0.02347
73	0x28e4	0.0382
74	0xa8f7	-0.0388
75	0x2481	0.0176
76	0xac7e	-0.0702
77	0x25ab	0.02214
78	0xacd4	-0.07544
79	0x30cc	0.1499
80	0x2b92	0.05914
81	0xaee0	-0.1074
82	0x1b63	0.003607
83	0x26ba	0.02628
84	0x2e77	0.101
85	0x2a9b	0.0516
86	0x2dd0	0.0908
87	0xa8e7	-0.0383
88	0x2762	0.02884
89	0x2f6c	0.11597
90	0x1b45	0.00355
91	0xafd0	-0.1221
92	0xa556	-0.02084
93	0x2b48	0.0569
94	0xac5d	-0.0682
95	0x3088	0.1416
96	0xa9dd	-0.0458
97	0x2d1b	0.0798
98	0xafee	-0.1239
99	0x31a8	0.1768
100	0xa089	-0.00886
101	0x2ab2	0.0523
102	0x3200	0.1875
103	0x2f2f	0.11224
104	0x311b	0.1595
105	0x2d28	0.08057
106	0x2dc1	0.0899
107	0x2dd9	0.0914
108	0xaab9	-0.05252
109	0x3180	0.1719
110	0xafc0	-0.1211
111	0x2b66	0.0578
112	0x23b3	0.01504
113	0xaafa	-0.0545
114	0xa992	-0.04352
115	0x2e14	0.095
116	0x2dbc	0.0896
117	0x2c7d	0.0701
118	0x9787	-0.001838
119	0xa5d5	-0.02278
120	0x22e6	0.01347
121	0x32ea	0.2161
122	0x2c6e	0.0692
123	0xb15b	-0.1674
124	0xa8ac	-0.0365
125	0x2539	0.0204
126	0x238d	0.01475
127	0x2a6b	0.05014
128	0x9d21	-0.00501
129	0x1f59	0.007175
130	0xaa0d	-0.04727
131	0x268b	0.02556
132	0x30f6	0.155
133	0x1e97	0.006435
134	0x2420	0.01611
135	0xa4f4	-0.01935
136	0xa7af	-0.03001
137	0x29ef	0.04636
138	0x2f28	0.1118
139	0x2ea7	0.10394
140	0xa196	-0.01091
141	0x2c3a	0.06604
142	0xac3d	-0.0662
143	0x3006	0.1257
144	0xacef	-0.0771
145	0xb031	-0.131
146	0xa7e5	-0.03084
147	0xab9c	-0.05945
148	0x2d97	0.08734
149	0xadf1	-0.09283
150	0x314b	0.1654
151	0x299f	0.0439
152	0xaa20	-0.04785
153	0x26a0	0.02588
154	0x9e6f	-0.006283
155	0x9e91	-0.006413
156	0xade9	-0.09235
157	0x29f3	0.04648
158	0x2c15	0.0638
159	0x214e	0.01036
160	0x28bf	0.03708
161	0x2d6e	0.08484
162	0xae8d	-0.10236
163	0x2e74	0.1008
164	0x316c	0.1694
165	0xaa1f	-0.04782
166	0x29fd	0.04678
167	0x2e37	0.0971
168	0x234c	0.01425
169	0x303c	0.1323
170	0x2e60	0.0996
171	0x2271	0.01258
172	0xac7f	-0.07025
173	0x2dae	0.08875
174	0x291b	0.0399
175	0x2f12	0.1105
176	0xa6ac	-0.02606
177	0xaf44	-0.1135
178	0x1d46	0.00515
179	0x2844	0.03333
180	0x2d2b	0.08075
181	0x2e6b	0.1003
182	0x2b45	0.0568
183	0xab4f	-0.0571
184	0x2a81	0.0508
185	0x2cca	0.0748
186	0x304d	0.1344
187	0xad5e	-0.08386
188	0x993f	-0.002562
189	0xa90a	-0.03937
190	0x2e73	0.10077
191	0x1e45	0.006123
192	0xad49	-0.0826
193	0x2c15	0.0638
194	0xa30e	-0.01378
195	0x303c	0.1323
196	0xa4a4	-0.01813
197	0xaba3	-0.05966
198	0x2c13	0.06366
199	0x2a32	0.0484
200	0x2673	0.02519
201	0xa9a0	-0.04395
202	0x2a60	0.0498
203	0x2ac0	0.05273
204	0xb12c	-0.1616
205	0x3058	0.1357
206	0xadf2	-0.0929
207	0x2983	0.04306
208	0x2d4e	0.0829
209	0xafa7	-0.11957
210	0xb030	-0.1309
211	0x22cd	0.01328
212	0x2600	0.02344
213	0xafa3	-0.1193
214	0x214b	0.01034
215	0x24ec	0.01923
216	0xae59	-0.0992
217	0x23d5	0.0153
218	0xa7dd	-0.03072
219	0x2409	0.01576
220	0x292a	0.04034
221	0xb076	-0.1394
222	0xa88e	-0.03558
223	0x2b04	0.0548
224	0x278b	0.02946
225	0x2967	0.0422
226	0xa89d	-0.03604
227	0x94ac	-0.001141
228	0x2532	0.0203
229	0x25d5	0.02278
230	0xab9f	-0.05954
231	0xa1a9	-0.011055
232	0x263a	0.02432
233	0xa8b2	-0.03668
234	0x2690	0.02563
235	0xab33	-0.05624
236	0xaf48	-0.1138
237	0x2abf	0.0527
238	0xae41	-0.0977
239	0x9eac	-0.006516
240	0xaba2	-0.05963
241	0x20c4	0.00931
242	0xa8ed	-0.03848
243	0xa5ef	-0.02318
244	0xab15	-0.05533
245	0xae2c	-0.09644
246	0x26cc	0.02655
247	0xab6e	-0.05804
248	0xac27	-0.0649
249	0x9d26	-0.005028
250	0x246d	0.01729
251	0xaebc	-0.1052
252	0xb055	-0.1354
253	0xa403	-0.01567
254	0x9c0d	-0.003956
255	0x2c24	0.0647

sequential/dense_1/MatMul f2 [10, 64]
0	0xac37	-0.06586
1	0xb402	-0.2505
2	0xb4f2	-0.309
3	0x3440	0.2656
4	0xacea	-0.0768
5	0x33b2	0.2405
6	0xb449	-0.2678
7	0xb09b	-0.1439
8	0x2217	0.011894
9	0x31ca	0.1809
10	0x9b0f	-0.003447
11	0x2f5b	0.1149
12	0xb07d	-0.1403
13	0xb4a2	-0.2896
14	0xb5d2	-0.3638
15	0x34b1	0.2932
16	0xb3ac	-0.2397
17	0x2f07	0.1098
18	0xb2e7	-0.2157
19	0x29ad	0.04434
20	0xb368	-0.2314
21	0xb557	-0.3337
22	0xb270	-0.2012
23	0xb4e2	-0.3052
24	0x315c	0.1675
25	0x329f	0.2069
26	0x29a0	0.04395
27	0x30e1	0.1525
28	0x30de	0.1521
29	0xb557	-0.3337
30	0xb117	-0.159
31	0xabf3	-0.0621
32	0x3256	0.198
33	0xb006	-0.1257
34	0xb47d	-0.2805
35	0x304b	0.1342
36	0xb4f3	-0.3093
37	0xb475	-0.2786
38	0xb4c3	-0.2976
39	0x28d2	0.03766
40	0xb457	-0.2712
41	0xa574	-0.0213
42	0xb674	-0.4033
43	0x2d53	0.0832
44	0x31ee	0.1853
45	0x2a8b	0.05112
46	0xb578	-0.3418
47	0x2f83	0.1174
48	0xb137	-0.163
49	0xb4b1	-0.2932
50	0x3452	0.27
51	0x3097	0.1434
52	0xacce	-0.0751
53	0xb45b	-0.2722
54	0xb68e	-0.4097
55	0xac8d	-0.0711
56	0x352f	0.324
57	0x303f	0.1327
58	0x344a	0.268
59	0x2f2e	0.1122
60	0xb37a	-0.2336
61	0x29f6	0.04657
62	0xa774	-0.02911
63	0x3131	0.1622
64	0x30f3	0.1547
65	0xa872	-0.03473
66	0x2ee5	0.1077
67	0x2d74	0.0852
68	0xaee9	-0.108
69	0xb471	-0.2776
70	0xb003	-0.1254
71	0x336e	0.2322
72	0x3057	0.1356
73	0x2a89	0.05106
74	0xacf1	-0.0772
75	0x3360	0.2305
76	0xb272	-0.2014
77	0x3023	0.1293
78	0xb574	-0.3408
79	0xb103	-0.1566
80	0x33a5	0.2389
81	0x30f5	0.1549
82	0x341c	0.2568
83	0x34d1	0.301
84	0x3056	0.1355
85	0xa73b	-0.02824
86	0xb087	-0.1415
87	0xb4a7	-0.2908
88	0xacc3	-0.0744
89	0x26c5	0.02644
90	0x2889	0.03543
91	0xb4c1	-0.297
92	0xb2c8	-0.2119
93	0xa5aa	-0.02213
94	0x2909	0.03934
95	0x302b	0.1302
96	0xafaa	-0.11975
97	0xa8be	-0.03705
98	0x1ed7	0.00668
99	0x3107	0.1571
100	0xb01f	-0.1288
101	0x2e0f	0.09467
102	0xb421	-0.258
103	0xb4a5	-0.2903
104	0x2d72	0.0851
105	0x3446	0.267
106	0xaed6	-0.1068
107	0xb435	-0.263
108	0xa999	-0.04373
109	0x31ef	0.1854
110	0x9dfb	-0.00584
111	0xb055	-0.1354
112	0x2d6d	0.0848
113	0x351b	0.319
114	0xac1a	-0.0641
115	0x2f75	0.1165
116	0x31f7	0.1864
117	0x311f	0.16
118	0xb4e8	-0.3066
119	0x326f	0.201
120	0xb70d	-0.4407
121	0xa40b	-0.0158
122	0xb31b	-0.222
123	0x2d8d	0.08673
124	0x329f	0.2069
125	0x2ce0	0.0762
126	0xb1a5	-0.1764
127	0x31d3	0.182
128	0xb217	-0.1903
129	0x2ef5	0.1087
130	0xaf9f	-0.1191
131	0x2dcb	0.0905
132	0x316f	0.1698
133	0x31e5	0.1842
134	0x30ac	0.146
135	0x2c6b	0.06903
136	0x33ba	0.2415
137	0x3392	0.2366
138	0xacf1	-0.0772
139	0xab6f	-0.05807
140	0x2e07	0.0942
141	0xb1b5	-0.1783
142	0xb4d6	-0.3022
143	0x3335	0.2252
144	0xb134	-0.1626
145	0xb579	-0.342
146	0x31f7	0.1864
147	0xaa75	-0.05045
148	0x3218	0.1904
149	0xb2c2	-0.2112
150	0x2c34	0.0657
151	0xb434	-0.2627
152	0x24bd	0.01851
153	0x317a	0.1711
154	0x3413	0.2546
155	0x3123	0.1605
156	0x3118	0.1592
157	0xb6c2	-0.4224
158	0xb3aa	-0.2395
159	0xae8b	-0.10223
160	0x3296	0.2058
161	0xb4e4	-0.3057
162	0x3098	0.1436
163	0xb281	-0.2032
164	0xb088	-0.1416
165	0xb4df	-0.3044
166	0xb072	-0.1389
167	0xac4d	-0.0672
168	0xb2a9	-0.2081
169	0x3343	0.2269
170	0x32ed	0.2164
171	0xb498	-0.287
172	0xb528	-0.3223
173	0xb4b3	-0.2937
174	0xb573	-0.3406
175	0x26b4	0.02618
176	0xb28e	-0.2048
177	0x33e3	0.2465
178	0x3303	0.2191
179	0xa85a	-0.034
180	0x332a	0.2239
181	0x324e	0.197
182	0x294e	0.04144
183	0xafe7	-0.1235
184	0xb189	-0.173
185	0xb1d6	-0.1824
186	0xb1d0	-0.1816
187	0xb418	-0.2559
188	0x32b1	0.2091
189	0xb529	-0.3225
190	0x3353	0.2289
191	0xa805	-0.0314
192	0x3504	0.3135
193	0x2feb	0.1237
194	0x31d7	0.1825
195	0x3440	0.2656
196	0xaf42	-0.1134
197	0xb274	-0.2017
198	0x31e0	0.1836
199	0xb315	-0.2213
200	0xb1e4	-0.1841
201	0x31ba	0.179
202	0x1f0c	0.00688
203	0xb19d	-0.1754
204	0x2f24	0.1116
205	0xae5c	-0.09937
206	0xafa3	-0.1193
207	0xb10c	-0.1577
208	0xb3d3	-0.2445
209	0x3154	0.1665
210	0x26b6	0.02621
211	0x2c78	0.0698
212	0xb00c	-0.1265
213	0xb23b	-0.1947
214	0x3009	0.1261
215	0xb2a0	-0.207
216	0x3272	0.2014
217	0xb5a4	-0.3525
218	0x3408	0.252
219	0xa2e0	-0.01343
220	0xacf6	-0.0775
221	0xb1fa	-0.1868
222	0xb792	-0.4731
223	0xb1aa	-0.177
224	0x2e43	0.09784
225	0xb43a	-0.2642
226	0xa9c4	-0.04504
227	0xb4d7	-0.3025
228	0x33e5	0.2467
229	0x35a9	0.3538
230	0x3004	0.1255
231	0x3023	0.1293
232	0x2d74	0.0852
233	0xaa83	-0.05087
234	0xb31f	-0.2225
235	0xb2d1	-0.213
236	0xb2a8	-0.208
237	0xb3cb	-0.2435
238	0xabcd	-0.06094
239	0xadf7	-0.0932
240	0xad1c	-0.07983
241	0xa87f	-0.03513
242	0x2786	0.02939
243	0x330e	0.2205
244	0x3205	0.1881
245	0xb3f0	-0.248
246	0x2583	0.02153
247	0xb5ae	-0.355
248	0xb39e	-0.238
249	0xb239	-0.1945
250	0x2e1b	0.0954
251	0xb5a6	-0.353
252	0xb222	-0.1917
253	0xaff7	-0.12445
254	0xb16a	-0.1692
255	0x322e	0.1931
