models/shape_optimized.tflite (tflite, 415928 bytes, 7 tensors)

sequential_1/conv2d_2/BiasAdd/ReadVariableOp f2 [16]
000000 82 97 b5 98 2e 8e 4e 0d b7 16 62 22 e5 83 06 90
       -0.001833 -0.002298 -0.0003772 0.0003238 0.001639 0.01247 -5.94e-05 -0.000491
000010 e6 85 44 24 5a 91 74 91 c8 24 b1 8b f8 26 8d 20
       -9e-05 0.01666 -0.0006533 -0.0006657 0.01868 -0.0002347 0.02722 0.00889

sequential_1/conv2d_3/BiasAdd/ReadVariableOp f2 [32]
000000 bc 95 da a4 49 a4 7c a2 9d 28 32 a2 5b a4 11 93
       -0.0014 -0.01895 -0.01674 -0.012665 0.03604 -0.0121 -0.01701 -0.0008626
000010 07 1b b5 9f 14 a5 dc a1 15 9e 43 17 25 a1 6e 9a
       0.003431 -0.007526 -0.01984 -0.011444 -0.00594 0.001773 -0.01005 -0.00314
000020 75 a0 05 28 9e 28 c8 18 0d 29 6f a1 e8 a1 83 a2
       -0.008705 0.0314 0.03607 0.002335 0.03946 -0.01061 -0.011536 -0.01272
000030 91 a0 be 97 e1 a3 e5 a4 16 29 ab a2 b1 9d 57 9f
       -0.00892 -0.00189 -0.01539 -0.01912 0.03973 -0.01302 -0.005558 -0.007168

sequential_1/conv2d_2/Conv2D f2 [16, 3, 3, 1]
000000 80 30 e5 25 50 b1 d6 b2 95 a8 39 31 8a 2c 63 aa
       0.1406 0.02303 -0.166 -0.2136 -0.0358 0.1632 0.0709 -0.0499
000010 3a 2c 0a 31 07 99 12 b1 0c b4 75 aa 61 34 1f 2e
       0.06604 0.1575 -0.002455 -0.1584 -0.253 -0.05045 0.2737 0.09564
000020 91 1b 45 ac 40 2f cb ad d7 31 c9 b2 43 ad b9 30
       0.003695 -0.0667 0.1133 -0.0905 0.1825 -0.212 -0.0822 0.1476
000030 2d 2e 94 ad 93 ac 6e a7 26 30 41 34 2b b3 8c b0
       0.0965 -0.08716 -0.0715 -0.02902 0.1296 0.2659 -0.224 -0.1421
000040 0f 30 27 b2 f5 29 91 24 f5 b0 0a 33 07 33 25 2f
       0.1268 -0.1923 0.04654 0.01784 -0.1549 0.22 0.2196 0.11163
000050 f6 30 e8 b0 76 9f d6 2b d4 b0 be 33 b8 29 1d 1d
       0.155 -0.1533 -0.007286 0.06122 -0.1509 0.242 0.04468 0.004993
000060 0c 2c b9 30 30 a2 37 21 51 a7 32 ab 2c 2e 28 34
       0.06323 0.1476 -0.012085 0.010185 -0.02858 -0.0562 0.09644 0.2598
000070 f7 a0 c0 b1 d3 aa 0e ae 94 b0 cc b2 09 31 71 29
       -0.0097 -0.1797 -0.0533 -0.0946 -0.1431 -0.2124 0.1573 0.0425
000080 34 31 af 33 59 31 99 ab 1b 30 e3 31 de 2e 67 ac
       0.1626 0.2401 0.1671 -0.05936 0.1283 0.184 0.1073 -0.0688
000090 12 2e 39 34 1e a9 ab 30 e4 a5 64 b1 b7 a8 57 ad
       0.09485 0.264 -0.03998 0.1459 -0.02301 -0.1685 -0.03683 -0.08344
0000a0 ed b1 5a ad 7a 24 de 31 3a 2c 93 31 56 32 a2 33
       -0.1852 -0.0836 0.01749 0.1833 0.06604 0.1742 0.198 0.2385
0000b0 70 32 5a ad 0c 27 eb af d4 2f c8 b1 0f a4 19 b3
       0.2012 -0.0836 0.02753 -0.1237 0.1223 -0.1807 -0.01585 -0.2218
0000c0 f1 30 e0 2e 2b b4 23 b0 5e b1 63 34 46 b2 a3 b0
       0.1544 0.1074 -0.2605 -0.1293 -0.1677 0.2742 -0.196 -0.1449
0000d0 13 b4 2b 35 96 b0 c7 b1 0d 32 54 34 30 ad 10 29
       -0.2546 0.323 -0.1433 -0.1805 0.1891 0.2705 -0.08105 0.03955
0000e0 42 b0 bb b2 ff b3 44 b0 23 ae 90 1b ff 31 80 b2
       -0.133 -0.2103 -0.2499 -0.1333 -0.0959 0.003693 0.1874 -0.2031
0000f0 75 2b 72 a9 91 a5 17 28 58 b2 47 31 95 b1 49 2e
       0.05826 -0.04254 -0.02174 0.03195 -0.1982 0.1649 -0.1744 0.0982
000100 56 33 33 b2 70 2c 19 32 b1 b1 a1 31 ed 32 a4 32
       0.2292 -0.1937 0.06934 0.1906 -0.1779 0.1759 0.2164 0.2075
000110 8e 2c 11 30 40 2b 99 33 cf 32 ad 30 9f b0 5d 30
       0.07117 0.1271 0.05664 0.2374 0.2128 0.1461 -0.1444 0.1364

sequential_1/conv2d_3/Conv2D f2 [32, 3, 3, 16]
000000 fe ab 28 b0 50 a8 4b 23 65 ad 34 23 0a 2f 59 2c
       -0.06244 -0.1299 -0.0337 0.014244 -0.0843 0.01407 0.11 0.06793
000010 9e a4 50 af 4d 28 6f ac 25 ac 1f 22 60 29 e5 2c
       -0.01804 -0.11426 0.0336 -0.0693 -0.06476 0.011955 0.042 0.0765
000020 5e af cf 28 8d 9e 36 ac a0 a4 7b a9 6b 27 25 2e
       -0.1151 0.03757 -0.006397 -0.0658 -0.01807 -0.04282 0.02898 0.096
000030 be aa f1 2c 67 9f 50 ae 1d 2e fc ad c6 ad 18 ad
       -0.05267 0.0772 -0.00723 -0.09863 0.0955 -0.0935 -0.0902 -0.0796
000040 06 27 d7 ab 76 28 24 2d e8 2d 9e 2d 75 2c db ae
       0.02744 -0.06125 0.03485 0.0803 0.0923 0.08777 0.06964 -0.1071
000050 0a 1e 23 af a3 2e 14 aa 29 28 77 a1 95 23 78 26
       0.005898 -0.1115 0.1037 -0.0475 0.0325 -0.01067 0.01481 0.02527
000060 73 26 d2 2a 16 aa 85 9a 80 1c 4c 1c 1c 2d ad 29
       0.02519 0.05328 -0.04755 -0.003183 0.004395 0.004196 0.07983 0.04434
000070 89 2c 88 ad 5d ad 10 ae 20 ad e9 24 0a ac b1 ae
       0.07086 -0.0864 -0.0838 -0.0947 -0.0801 0.01918 -0.0631 -0.10455
000080 1b 2d e6 a5 6a ae 8f 29 a1 27 07 2c d5 28 39 2c
       0.0798 -0.02304 -0.1002 0.04343 0.0298 0.0629 0.03775 0.066
000090 db 2c f5 ae c3 1f 18 2e ed aa 61 30 bc 0f 7b b0
       0.07587 -0.1087 0.00758 0.0952 -0.0541 0.1368 0.000472 -0.14
0000a0 32 2f ed 2f ef aa af a6 19 27 7e 25 eb 1b 8b 28
       0.1124 0.12384 -0.05417 -0.02611 0.02773 0.02145 0.003866 0.0355
0000b0 4c 94 67 ac c9 2a ce aa 77 ac ca 24 f9 ad a3 a5
       -0.001049 -0.0688 0.053 -0.05316 -0.06976 0.0187 -0.0933 -0.02202
0000c0 50 2d bd 2f d9 26 8a ac eb ac ea a0 5a a9 57 af
       0.083 0.1209 0.02675 -0.0709 -0.07684 -0.0096 -0.0418 -0.1147
0000d0 51 2f 86 aa 33 ae 8b af d1 a0 99 a5 67 29 5f aa
       0.1143 -0.05096 -0.09686 -0.11786 -0.00941 -0.02187 0.0422 -0.04977
0000e0 1e 2c 0c 32 9e a5 76 b0 16 2c be a0 c2 30 7c 2d
       0.06433 0.189 -0.02194 -0.1394 0.06384 -0.00926 0.1487 0.0857
0000f0 5f 24 e9 2b ee ae 3c 9e 9d a2 57 2f 29 29 24 2f
       0.01707 0.0618 -0.1083 -0.00609 -0.01292 0.1147 0.0403 0.1116
000100 87 ac 5c a3 4e 29 71 a6 92 2c 7e 2d f8 ab f1 22
       -0.07074 -0.01437 0.04144 -0.02516 0.0714 0.0858 -0.06226 0.01356
000110 d1 a9 cb 29 17 ac 3a ae b1 ae 00 24 08 2d f8 27
       -0.04544 0.04526 -0.0639 -0.0973 -0.10455 0.01563 0.0786 0.03113
000120 05 ac 7d 2d 32 ad d7 a6 b3 24 1c 28 8d b0 79 ab
       -0.0628 0.08575 -0.0812 -0.02672 0.01836 0.0321 -0.1422 -0.05838
000130 74 a1 00 30 f4 26 59 2f 7c 28 15 2e 72 a5 06 ae
       -0.01065 0.125 0.02716 0.1148 0.03503 0.09503 -0.02127 -0.0941
000140 2a 32 5f 2d e4 2e 1b a9 bb 2a 83 9a 25 2c 70 28
       0.1926 0.0839 0.10767 -0.0399 0.05258 -0.00318 0.06476 0.03467
000150 8e 2e 51 2d b6 30 42 29 a8 31 10 2d b9 24 15 ad
       0.1024 0.08307 0.1472 0.04108 0.1768 0.0791 0.01845 -0.0794
000160 cd 2e 14 30 3b 2e 45 ad 4a 28 3e 9f dc 2a 69 ae
       0.10626 0.1274 0.09735 -0.08234 0.0335 -0.007072 0.0536 -0.10016
000170 25 aa a5 ae c5 24 16 2e 55 2d ae 2f 20 aa 18 28
       -0.048 -0.1038 0.01863 0.0951 0.0833 0.12 -0.04785 0.03198
000180 67 31 13 32 5b 2f 0f af 06 2c 96 25 d4 30 1d 2d
       0.1688 0.1898 0.1149 -0.1103 0.06287 0.02182 0.1509 0.0799
000190 b5 2e c4 2c 89 30 90 2c 29 30 4b 2e bb 9c 85 2c
       0.1048 0.07446 0.1417 0.0713 0.13 0.0983 -0.00462 0.0706
0001a0 55 2d ce 2b 97 30 53 1c a8 a5 77 a6 c1 2a fa ad
       0.0833 0.06097 0.1434 0.004223 -0.0221 -0.02525 0.05276 -0.0934
0001b0 a1 af 51 aa c5 31 f0 25 30 a9 e0 26 49 2a 4a ad
       -0.1192 -0.04935 0.1803 0.0232 -0.04053 0.02686 0.0491 -0.08264
0001c0 37 2c f4 30 d2 2c c9 20 7e 28 0b ae e7 8f 0f 2a
       0.06586 0.1548 0.0753 0.009346 0.0351 -0.0944 -0.0004823 0.04733
0001d0 ad 28 94 a6 42 32 70 30 02 ad 02 aa 5c af 32 2c
       0.03653 -0.0257 0.1956 0.1387 -0.07825 -0.04694 -0.115 0.06555
0001e0 c9 20 78 30 e2 2b 1d a8 05 b0 3c 2b 81 2c 8c a4
       0.009346 0.1396 0.06158 -0.03214 -0.1256 0.05652 0.0704 -0.01776
0001f0 97 b0 b8 af 6a 28 ac 2e 12 ad b8 2d 21 2e 79 ae
       -0.1434 -0.1206 0.0345 0.10425 -0.0792 0.08936 0.09576 -0.10114

sequential_1/dense_2/BiasAdd/ReadVariableOp f2 [32]
000000 17 1b 84 a4 d2 21 26 9e 85 98 26 9e 2a 9e 6f 9f
       0.003462 -0.01764 0.01137 -0.006004 -0.002207 -0.006004 -0.00602 -0.00726
000010 0d a4 23 9e 19 a1 0c a4 ef 25 2c 28 f9 9e ea 94
       -0.01582 -0.005993 -0.00996 -0.01581 0.02318 0.0326 -0.00681 -0.0012
000020 cd 24 90 9d 5a 1a b6 22 20 26 07 9c 94 28 a9 a1
       0.01875 -0.005432 0.003101 0.01311 0.02393 -0.003933 0.03577 -0.011055
000030 22 28 26 a1 95 9d cb 26 5f a0 74 1f 7d 27 cb 24
       0.0323 -0.010056 -0.00545 0.02654 -0.00854 0.00728 0.02925 0.01872

sequential_1/dense_2/MatMul f2 [32, 6272]
000000 e0 a9 8a a4 fe 11 20 a2 3b 20 07 27 96 a5 7e 25
       -0.0459 -0.01773 0.0007315 -0.01196 0.00826 0.02745 -0.02182 0.02145
000010 c1 8d 0f a9 71 88 ed a5 a9 a8 44 a5 80 23 1b a4
       -0.0003512 -0.03952 -0.0001355 -0.02315 -0.0364 -0.02057 0.01465 -0.01604
000020 0d a4 ca 20 2e a7 c4 a7 bf 27 77 25 57 9e f0 1d
       -0.01582 0.00935 -0.02805 -0.03033 0.03026 0.02135 -0.00619 0.0058
000030 2a 25 32 a9 00 a3 25 a8 e5 21 68 a8 1f a8 93 26
       0.02017 -0.0406 -0.01367 -0.03238 0.01151 -0.03442 -0.0322 0.02568
000040 22 25 cc a4 2a 14 d0 1a 22 20 7b a2 c4 95 07 23
       0.02005 -0.01874 0.001017 0.003326 0.00807 -0.01266 -0.001408 0.013725
000050 a7 a9 34 21 7d a2 1c a2 db 9d d6 a3 60 1e da 20
       -0.04416 0.01016 -0.01267 -0.01193 -0.00572 -0.015305 0.006226 0.009476
000060 1a a6 e3 24 c8 25 90 a7 a5 1a 15 a6 45 1f fd a5
       -0.02383 0.01909 0.02258 -0.02954 0.003244 -0.02376 0.0071 -0.02339
000070 97 24 92 1b 2f a5 25 a9 72 a8 83 ab ea a5 f1 21
       0.01793 0.003696 -0.02025 -0.0402 -0.03473 -0.0587 -0.0231 0.011604
000080 14 a4 25 a1 35 a5 1c 27 df 20 17 24 3b a2 d2 a2
       -0.01593 -0.01005 -0.02034 0.02777 0.009514 0.01598 -0.01217 -0.01332
000090 bc aa 8e a6 74 25 a8 26 a7 a7 3e ab d9 9a c4 a4
       -0.0526 -0.0256 0.0213 0.026 -0.02989 -0.05658 -0.003344 -0.01862
0000a0 39 25 63 a2 23 a8 46 a6 22 27 c1 9e f5 a8 2e a3
       0.0204 -0.012474 -0.03232 -0.0245 0.02786 -0.006596 -0.03873 -0.01402
0000b0 6b a6 c4 24 5c 9c ac a1 38 a2 08 ab 29 1c b2 22
       -0.02507 0.01862 -0.004257 -0.01108 -0.012146 -0.05493 0.004063 0.01308
0000c0 44 a3 99 1f 34 a0 bc a0 91 9e b0 27 8f 23 b5 a2
       -0.01419 0.00742 -0.00821 -0.00925 -0.006413 0.03003 0.01476 -0.0131
0000d0 c0 a5 c6 9d 4d 21 75 21 c3 9b e9 a3 62 a3 75 a5
       -0.02246 -0.00564 0.01035 0.01066 -0.00379 -0.01545 -0.01442 -0.02132
0000e0 5c 26 f8 28 40 20 f7 98 de a5 86 99 2a 25 84 28
       0.02484 0.03882 0.0083 -0.002424 -0.02292 -0.002697 0.02017 0.03528
0000f0 bb 26 fb 27 ad 25 4a 28 55 21 f3 a6 bb 22 11 29
       0.02629 0.03117 0.02217 0.0335 0.010414 -0.02715 0.013145 0.03958
000100 76 1c 85 98 49 a4 05 2c ad 20 48 27 7c 27 24 1f
       0.004356 -0.002207 -0.01674 0.0628 0.00913 0.02844 0.02924 0.006973
000110 eb 11 61 1b 9f 29 b1 28 e6 9d 6f 20 78 a0 38 1c
       0.0007224 0.003603 0.0439 0.03665 -0.00576 0.00866 -0.00873 0.00412
000120 6d a5 60 29 16 28 f7 1f d3 21 3e 28 31 28 39 2c
       -0.0212 0.042 0.03192 0.00778 0.011375 0.03314 0.03275 0.066
000130 a9 18 2c 27 31 29 e7 22 ff 29 04 27 a7 22 58 1d
       0.002275 0.02802 0.04056 0.01348 0.04684 0.0274 0.01299 0.00522
000140 0d 22 9c 22 c1 a0 c6 2a 5b 29 f3 27 43 1b 5a 26
       0.01182 0.01291 -0.009285 0.05292 0.04184 0.03105 0.003546 0.02481
000150 27 a4 4e 2b 86 28 4e 29 22 28 a4 1c 08 21 7d a5
       -0.01622 0.05707 0.03534 0.04144 0.0323 0.00453 0.00983 -0.02144
000160 ae a2 0d 2a 60 26 9e 1d 87 29 a7 2e b1 29 94 2a
       -0.01305 0.04727 0.0249 0.005486 0.04318 0.10394 0.04446 0.0514
000170 70 9f 75 27 56 2c 64 23 d4 98 1a 22 43 1a 6a 2a
       -0.007263 0.02913 0.06775 0.014435 -0.002357 0.01192 0.003057 0.0501
000180 0b 22 4a 25 b7 29 64 2c c7 28 f3 24 86 29 7b a2
       0.0118 0.02066 0.04465 0.0686 0.03732 0.01933 0.04315 -0.01266
000190 74 18 16 25 c8 27 19 29 15 a3 fb 2b a8 29 4d 20
       0.002174 0.01987 0.0304 0.03983 -0.01383 0.06235 0.0442 0.0084
0001a0 27 1e 7b 2a 56 23 be 27 4d 29 bc 2e 35 29 5e 2c
       0.00601 0.05063 0.01433 0.03024 0.0414 0.1052 0.04068 0.06824
0001b0 9a 20 85 2d 97 2b 22 a0 03 29 80 25 4c a0 97 24
       0.00899 0.08624 0.0593 -0.00807 0.03915 0.02148 -0.00839 0.01793
0001c0 69 2a 97 29 06 28 ed 2b 10 25 58 27 ba 29 1d 24
       0.05008 0.04367 0.03143 0.06192 0.01978 0.02869 0.04474 0.01607
0001d0 4a a4 89 29 0b 2a 37 29 d1 28 84 22 a8 94 d7 9d
       -0.01675 0.04324 0.0472 0.04074 0.03763 0.012726 -0.001137 -0.005703
0001e0 f6 26 c9 24 29 1c 9a 1e 18 24 80 2e cd 2c a2 2a
       0.02719 0.01869 0.004063 0.006447 0.01599 0.10156 0.075 0.05182
0001f0 2b 2a 58 2c 2e 29 7d 9c 94 29 b5 23 8b 23 f6 24
       0.0482 0.0679 0.04047 -0.004383 0.04358 0.01505 0.01473 0.01938

sequential_1/dense_3/MatMul f2 [3, 32]
000000 7b 35 be 35 d8 b5 cb af 23 37 0e b6 ec b6 86 b5
       0.3425 0.359 -0.3652 -0.12177 0.446 -0.3784 -0.4326 -0.3452
000010 cc b4 45 b0 47 b3 61 a3 64 ad 52 ad 28 2b a0 b5
       -0.2998 -0.1334 -0.2274 -0.01441 -0.0842 -0.0831 0.0559 -0.3516
000020 61 33 05 b0 5b 37 7f b7 36 b5 d0 35 77 36 8a b5
       0.2306 -0.1256 0.4597 -0.4685 -0.3257 0.3633 0.404 -0.3462
000030 24 b7 83 34 f5 b3 e7 b4 76 ad b7 b4 54 ab 0b 28
       -0.4463 0.282 -0.2487 -0.3064 -0.0853 -0.2947 -0.05725 0.0316
000040 80 2f 6c 2f 86 35 97 20 58 2c fe b1 b3 b6 c0 2f
       0.1172 0.11597 0.3452 0.008965 0.0679 -0.1873 -0.4187 0.1211
000050 af b2 f5 b4 08 35 b8 b5 56 35 48 36 39 20 06 b2
       -0.2089 -0.3098 0.3145 -0.3574 0.3335 0.3926 0.00825 -0.1882
000060 e0 33 4d 99 59 2f 1a 35 0f 33 97 b7 39 36 bf 35
       0.2461 -0.002588 0.1148 0.3188 0.2206 -0.4744 0.389 0.3591
000070 2d af ae b7 09 b0 9e 2d 2e b4 c5 33 5c a5 d8 36
       -0.1121 -0.48 -0.1261 0.08777 -0.2612 0.2428 -0.02094 0.4277
000080 38 b7 cd 35 01 36 09 35 c6 b3 c6 af d5 31 87 31
       -0.4512 0.3625 0.3752 0.3147 -0.2429 -0.12146 0.1823 0.1727
000090 5d 34 77 b4 e7 34 60 a5 d2 b3 e6 b3 89 af eb 31
       0.2727 -0.279 0.3064 -0.021 -0.2444 -0.2468 -0.11774 0.1849
0000a0 7a b6 05 38 a1 b4 e8 b0 a2 b6 4b b0 eb 30 05 26
       -0.4048 0.5024 -0.2893 -0.1533 -0.4146 -0.1342 0.1537 0.02351
0000b0 05 b8 1c 30 82 b3 09 b8 ce 36 5b 35 39 b7 cc 35
       -0.5024 0.1284 -0.2346 -0.5044 0.4253 0.3347 -0.4514 0.3623
